models/demo_B0_314.pt (torch_old, 4167 bytes, 5 tensors)

fc1.weight f4 [50, 4]
0	0xbf3c1085	-0.73462707
1	0x3c2212db	0.009892191
2	0xbf87f4be	-1.0621564
3	0x3ed30f60	0.41222668
4	0x3ecd55f8	0.4010465
5	0xbeb6206a	-0.35571605
6	0xbf271d08	-0.65278673
7	0x3f714ffe	0.94262683
8	0xbca45bac	-0.020063244
9	0x3e730232	0.23731306
10	0xbf08969d	-0.5335482
11	0x3fa77d43	1.3085102
12	0xbf80e638	-1.0070257
13	0xbf1c68dc	-0.610975
14	0xbea60adc	-0.3243016
15	0x3f15ae10	0.58468723
16	0xbe502880	-0.2032795
17	0xbf1adf1c	-0.6049669
18	0xbf126f87	-0.5720143
19	0x3fad9a44	1.3562703
20	0x3f40d6cb	0.7532775
21	0xbe055059	-0.13018931
22	0xbe03e1e8	-0.12879145
23	0xbfba3f61	-1.4550592
24	0x3d71ed46	0.059064172
25	0xbf5699f4	-0.83828664
26	0xbf66a1f3	-0.90090865
27	0xbe78ff03	-0.24316029
28	0xbe937298	-0.28798366
29	0x3fc02e76	1.5014179
30	0x3ea86288	0.32887673
31	0x3e096974	0.13419133
32	0x3e61c825	0.22049005
33	0x3f8a5c4b	1.0809416
34	0xbfd0cbd5	-1.6312205
35	0xbf5afcf5	-0.8554223
36	0x3f8389f9	1.0276481
37	0xbf9d3ff6	-1.2285144
38	0x3e9cf957	0.3065898
39	0x3f9032c4	1.1265492
40	0xbe344f17	-0.17608295
41	0x3fd5f0d4	1.671412
42	0x3eaca79c	0.33721626
43	0xbeb79ca1	-0.35861686
44	0xbedf1409	-0.43569973
45	0xbf595641	-0.8489724
46	0x3ee2293c	0.44172084
47	0xbef4dedb	-0.47826275
48	0xbf9537cf	-1.1657656
49	0xbfa84fd4	-1.3149362
50	0x3da9444f	0.08264982
51	0xbfa0a4ad	-1.2550255
52	0x3f43fff6	0.7656244
53	0x3f6792c8	0.90458345
54	0x3f19ac33	0.6002838
55	0xbfbdcd75	-1.4828326
56	0xbee9e682	-0.45683676
57	0xbfa810a7	-1.3130082
58	0x3eb8b250	0.36073542
59	0x3ee09f29	0.4387143
60	0xbef11a38	-0.47090316
61	0xbebbe843	-0.3670064
62	0x3fc28d3c	1.5199351
63	0xbf832ffe	-1.0249021
64	0xbfa26144	-1.2685933
65	0xbec4e4a7	-0.38455698
66	0xbedce96f	-0.43146846
67	0xbf0f5a83	-0.55997485
68	0xbfc6833f	-1.5508803
69	0xbeba419e	-0.36378187
70	0xbebae598	-0.3650329
71	0xbf0e291e	-0.5553149
72	0x3f72302f	0.9460477
73	0x3f140655	0.5782216
74	0xbd8b4c7e	-0.06801699
75	0x3f276634	0.65390325
76	0xbed052e3	-0.40688238
77	0x3e0b0142	0.13574699
78	0xbf48c4ae	-0.7842511
79	0xbf159893	-0.58435935
80	0xbf1e795d	-0.61903936
81	0x3f1df877	0.6170725
82	0x3f94db3b	1.1629404
83	0xbf217d1c	-0.63081527
84	0x3f4b2825	0.7935813
85	0x3ec1c75f	0.3784742
86	0xbf3ba549	-0.7329908
87	0x3f992a40	1.1966019
88	0xbea94a83	-0.3306466
89	0xbf08ba6b	-0.5340945
90	0x3f458031	0.7714873
91	0x3fb2ba14	1.3963037
92	0x3f620218	0.88284445
93	0x3ef95694	0.48698866
94	0x3ea754ed	0.3268198
95	0x3f5c0fcc	0.85961604
96	0x3d88e738	0.066847265
97	0x3e118a2b	0.14212863
98	0xbf8b231a	-1.0870087
99	0xbf80e9e7	-1.0071381
100	0x3eceebfe	0.40414423
101	0xbe684ec7	-0.22686301
102	0xbf3b77de	-0.7322978
103	0xbdc2c423	-0.09510066
104	0x3f6c6f5f	0.9235744
105	0x3d94910e	0.072542295
106	0x3d86a6d2	0.06574787
107	0x3f9a168b	1.203813
108	0x3f9b2e32	1.2123473
109	0x3f853aee	1.0408609
110	0x3e2c7e30	0.16845012
111	0xbf89ca83	-1.0764927
112	0xbe7fd1c1	-0.24982359
113	0x3eb3be5b	0.35106167
114	0xbccc96ea	-0.024974305
115	0x3fa2a4c8	1.2706537
116	0xbe87b177	-0.26502582
117	0xbf538ca0	-0.8263645
118	0xbf546a32	-0.8297454
119	0xbe9746b9	-0.29546145
120	0x3f8a59fe	1.0808713
121	0xbfa0bd28	-1.2557726
122	0xbc8b8569	-0.017031388
123	0x3efc0d2d	0.49228802
124	0x3e88aff5	0.26696745
125	0xbe886c9c	-0.26645362
126	0x3db16a78	0.086628854
127	0xbf28c4f2	-0.65925515
128	0x3d4f1d69	0.050565157
129	0xbf88128d	-1.0630661
130	0xbf8adf01	-1.0849305
131	0xbf1056c2	-0.5638238
132	0xbf340bb5	-0.70330364
133	0x3fbf9580	1.4967499
134	0xbec43e3e	-0.38328737
135	0xbf259985	-0.6468738
136	0x3ec2a340	0.38015175
137	0x3fac955c	1.3483081
138	0xbc794f74	-0.015216697
139	0x3da9bd63	0.08288076
140	0xbe5219d3	-0.20517664
141	0xbdd4c405	-0.1038895
142	0xbf17bf86	-0.59276617
143	0x3fb67c9f	1.4256781
144	0xbf7e05b2	-0.9922744
145	0xbec0fbcd	-0.3769211
146	0xbf8b6572	-1.0890334
147	0xbf9a964b	-1.2077116
148	0xbf419847	-0.7562298
149	0xbfcda89a	-1.6067078
150	0x3fb07827	1.3786668
151	0x3fa4a92c	1.2864127
152	0x3e65119f	0.22370003
153	0xbeb8fe7b	-0.36131653
154	0x3f42c461	0.760809
155	0x3fbf1f6b	1.4931463
156	0x3f9622f6	1.1729419
157	0x3f766768	0.96251535
158	0x3b8d7b08	0.004317645
159	0xbf5bf9b0	-0.8592787
160	0xbfb54dde	-1.4164388
161	0xbf93a91f	-1.1535987
162	0xbeb7a7b4	-0.35870135
163	0x3eb0eba3	0.34554777
164	0x3e192e50	0.14959073
165	0x3ecfc38c	0.40578878
166	0xbe1c5da0	-0.1527009
167	0xbf8c57b8	-1.096427
168	0x3e79a150	0.24377942
169	0xbf83af4a	-1.0287869
170	0xbed2a9f4	-0.4114529
171	0x3db53bf3	0.08849325
172	0xbfaebb74	-1.3650956
173	0xbf4c440f	-0.7979135
174	0xbdbafef7	-0.09130662
175	0x3f77cdb2	0.9679824
176	0xbea58fb0	-0.32336187
177	0xbfb07d94	-1.3788323
178	0x3e238c47	0.1597148
179	0x3ed56b17	0.41683266
180	0x3e71adcb	0.23601453
181	0xbf166b9e	-0.5875796
182	0xbf37cc09	-0.7179571
183	0xbe1921c9	-0.14954294
184	0xbf19dc91	-0.6010218
185	0xbece9d25	-0.40354267
186	0xbf5554d5	-0.8333257
187	0x3f23d5af	0.6399793
188	0xbfcf26bd	-1.6183697
189	0xbfc7fa08	-1.5623178
190	0xbde02774	-0.10945025
191	0xbf9edae3	-1.2410549
192	0xbf747a1d	-0.9549883
193	0x3fd68f46	1.6762474
194	0xbd8a7645	-0.067608394
195	0xbfb2e200	-1.397522
196	0x3f23f7fc	0.6405027
197	0x3f1952f2	0.5989219
198	0xbf2f7343	-0.6853525
199	0xbfb2783f	-1.3942946

fc1.bias f4 [50]
0	0x3e7d8a70	0.24759841
1	0x3bea6abb	0.0071538365
2	0x3e71404d	0.23559685
3	0x3eb5cc51	0.35507444
4	0x3f3a7b15	0.7284406
5	0xbeda0ae1	-0.42586425
6	0xbeda21a2	-0.42603785
7	0xbe1f8861	-0.15579368
8	0xbee6686a	-0.45001537
9	0x3f0239da	0.50869524
10	0x3f048f5f	0.51781267
11	0x3f325850	0.69666004
12	0xbebf46f2	-0.37358814
13	0xbe9e6dc2	-0.30943114
14	0x3f222b18	0.63347006
15	0x3e9108cf	0.28327033
16	0xbf462b01	-0.7740937
17	0xbe170183	-0.1474667
18	0xbe825aa4	-0.25459778
19	0xbee42f57	-0.44567367
20	0xbdc74649	-0.09730203
21	0x3f05dc15	0.52288944
22	0x3c6dbdd4	0.014510591
23	0xbe9c0ddc	-0.30479324
24	0xbe915910	-0.28388262
25	0x3dd88156	0.10571544
26	0x3f238067	0.638678
27	0xbedc55dc	-0.43034256
28	0x3eebeac0	0.46077538
29	0xbf157dae	-0.58394897
30	0x3e003355	0.12519582
31	0xbddda132	-0.10821761
32	0xbe51ecfc	-0.20500559
33	0x3d505862	0.05086554
34	0x3f305e22	0.68893635
35	0x3d689d11	0.056790415
36	0xbe378b76	-0.17924294
37	0xbce48897	-0.027897162
38	0x3e4a4b48	0.1975528
39	0xbf1d08b6	-0.61341417
40	0x3e285c5a	0.1644148
41	0xbd9da778	-0.07697958
42	0xbdbe5d1c	-0.09295103
43	0x3e3ebb1c	0.18626064
44	0xbe2634a8	-0.16231024
45	0x3eb66225	0.35621753
46	0x3f3083dd	0.6895121
47	0xbf2e20d0	-0.6801882
48	0x3def20bb	0.11676165
49	0x3e5ed3b9	0.21760453

adv.weight f4 [10, 50]
0	0xbdc0b12c	-0.09408793
1	0x3c923c28	0.01785095
2	0x3e1ba137	0.15198217
3	0xbe1c4e7d	-0.15264316
4	0xbe014ecd	-0.12627716
5	0xbeb5bf48	-0.354975
6	0xbedc5f64	-0.43041527
7	0x3e6089fb	0.21927635
8	0x3ea88824	0.32916367
9	0xbf0b10b8	-0.54322386
10	0xbeadcdbc	-0.33946025
11	0xbee8135d	-0.45327273
12	0xbf87baff	-1.0603942
13	0xbda0e378	-0.07855886
14	0x3e9c17a4	0.30486786
15	0x3d9703ad	0.07373748
16	0xbdccd5b7	-0.100017
17	0x3dd48fa4	0.1037896
18	0xbd0bd3bd	-0.034137476
19	0xbf06cf3d	-0.5265997
20	0x3d97ce66	0.07412414
21	0x3e31e33c	0.1737184
22	0x3e9748a6	0.29547614
23	0xbd2b8184	-0.041871563
24	0x3cfa7536	0.030573469
25	0xbdb33d2f	-0.08751904
26	0xbe898879	-0.26861933
27	0x3c46b657	0.012128434
28	0xbe0b2e73	-0.13591938
29	0xbea4f10f	-0.32215163
30	0x3ea11237	0.3145921
31	0xbe8becf6	-0.27329224
32	0x3e4d43bf	0.20045374
33	0x3eec9889	0.46210125
34	0x3d73ea8a	0.059549846
35	0x3d929991	0.07158197
36	0xbf900096	-1.1250179
37	0x3eb753d1	0.35806134
38	0xbeb67f12	-0.35643822
39	0xbe67e1e5	-0.22644766
40	0x3e232dfb	0.15935509
41	0x3e2d5f56	0.16930899
42	0x3daf230f	0.08551609
43	0x3cfa7c7a	0.030576933
44	0x3e923cac	0.28561914
45	0xbdb94194	-0.09045711
46	0x3ebb9674	0.36638224
47	0xbf029597	-0.51009506
48	0x3d08ec43	0.03342844
49	0xbeb999be	-0.36250108
50	0x3e801f86	0.2502405
51	0x3e91f69b	0.28508458
52	0xbd67e9d5	-0.056619484
53	0xbd14a015	-0.03628548
54	0xbe9741c6	-0.2954237
55	0xbe691f1c	-0.22765774
56	0xbd5d6e9d	-0.054060567
57	0x3e8590a9	0.2608693
58	0x3f042f80	0.5163498
59	0xbd22c294	-0.039736345
60	0xbe1c97d2	-0.1529229
61	0xbeff9903	-0.49921426
62	0xbf41536c	-0.75517917
63	0xbe6db3a7	-0.23213063
64	0xbcdb1d41	-0.026747348
65	0xbeac9992	-0.33710915
66	0xbf008dcd	-0.5021637
67	0x3e2c3254	0.16816074
68	0xbdff1ab9	-0.12456269
69	0xbec3b3a5	-0.38222995
70	0x3c773573	0.015088427
71	0xbeb17204	-0.346573
72	0x3e0bb95a	0.13644925
73	0xbddae14a	-0.10687502
74	0xbde7328b	-0.11288937
75	0xbe13e8e4	-0.1444431
76	0x3d6ef17e	0.058335774
77	0xbd6d3836	-0.057914935
78	0x3df4dda5	0.11956338
79	0x3d57710d	0.052598048
80	0x3d431a64	0.04763259
81	0x3ba33c8d	0.0049815834
82	0x3e52f2e7	0.20600472
83	0x3e065e2a	0.13121858
84	0xbec2063f	-0.3789539
85	0x3e6fbeb4	0.23412591
86	0xbf3ea879	-0.7447582
87	0x3df84cc5	0.121240176
88	0x3d936b93	0.071982525
89	0xbe24735b	-0.1605963
90	0x3e807053	0.25085697
91	0xbc85cee0	-0.016333997
92	0xbe5697c0	-0.20956326
93	0xbd8ae017	-0.06781023
94	0x3ebae4c5	0.36502662
95	0x3e3a44b9	0.18190278
96	0x3d903229	0.07040817
97	0xbf6ee711	-0.9332133
98	0xbe75e171	-0.2401178
99	0xbd974073	-0.073853396
100	0x3d3f08fe	0.046639435
101	0xbd011c21	-0.031520966
102	0x3e8f9e09	0.2805026
103	0xbe8d0baa	-0.2754796
104	0xbe83dc64	-0.25754082
105	0x3d7f7846	0.06237056
106	0xbe825fed	-0.2546381
107	0x3da7f43b	0.0820088
108	0x3e7fa88f	0.24966644
109	0xbec7f8ae	-0.39056915
110	0xbcf188d3	-0.029484188
111	0xbe79b630	-0.24385905
112	0xbf97b5d4	-1.1852365
113	0x3e27f1c5	0.16400822
114	0x3e923de8	0.28562856
115	0xbea2985f	-0.31756875
116	0xbebf9f28	-0.37426114
117	0x3e23eaac	0.16007489
118	0xbe8f4eca	-0.279898
119	0xbec3bc85	-0.38229766
120	0x3dad55c7	0.08463626
121	0x3e40398a	0.1877195
122	0xbdb7ed49	-0.089808054
123	0x3e3c5415	0.1839145
124	0xbe3a30cc	-0.18182677
125	0x3d135fb9	0.03597996
126	0xbe39dda8	-0.18150961
127	0x3d3a9beb	0.04555885
128	0xbdf41b6a	-0.11919291
129	0xbd7011f8	-0.058610886
130	0x3e84e282	0.25954062
131	0x3d19ce15	0.03755005
132	0x3ec7a2dc	0.3899144
133	0x3eb3866b	0.3506349
134	0xbe52a86e	-0.20572063
135	0x3e924bfd	0.285736
136	0xbf382c4b	-0.71942586
137	0x3eb95283	0.36195764
138	0x3db258ce	0.087083444
139	0x3ea0f54f	0.31437156
140	0x3df3c9e1	0.1190374
141	0x3e7e4b2e	0.24833366
142	0xbe3d3430	-0.18476939
143	0xbdabf975	-0.083971895
144	0x3e5f5a6d	0.21811838
145	0x3dbfa9d1	0.09358562
146	0x3e46ec67	0.19426118
147	0xbf0fb310	-0.561326
148	0xbe3eeca7	-0.18644963
149	0xbe8d8616	-0.27641362
150	0x3db19433	0.08670845
151	0x3e98000f	0.29687545
152	0x3e777cc5	0.2416869
153	0xbe940d9c	-0.28916633
154	0x3d841f1e	0.06451248
155	0xbe1394d0	-0.14412236
156	0x3c4c78c2	0.012479963
157	0x3e3dafcc	0.18524092
158	0x3ed9465d	0.42436495
159	0xbe5d490c	-0.21609896
160	0xbd30eebd	-0.04319643
161	0xbe3c1e70	-0.18370986
162	0xbf8b2614	-1.0870996
163	0x3ebd5ef3	0.36986503
164	0x3e62eec1	0.2216139
165	0xbe9d5727	-0.30730554
166	0xbe15a013	-0.14611845
167	0x3d8fff6c	0.0703114
168	0xbea8bc1c	-0.32956016
169	0xbd37d678	-0.044882268
170	0x3e27f64e	0.16402552
171	0xbe95041e	-0.29104704
172	0x3e88ae95	0.26695696
173	0xbd087217	-0.03331193
174	0x3e9af1ed	0.302627
175	0x3e4cb5ff	0.19991301
176	0x3e77f230	0.24213481
177	0x3e203615	0.1564563
178	0xbe60c204	-0.21949011
179	0x3d361b4b	0.044459622
180	0xbdf6f2d1	-0.12058032
181	0x3efa1386	0.4884302
182	0x3cfad832	0.030620668
183	0x3e027da4	0.1274324
184	0xbe6a5d09	-0.22887053
185	0xbd60ea7c	-0.05491112
186	0xbf1cacad	-0.6120098
187	0xbdde970c	-0.10868654
188	0x3e85bee4	0.261222
189	0x3e94a082	0.29028708
190	0x3e5d5659	0.2161497
191	0xbe983c26	-0.2973339
192	0x3d5d403a	0.05401633
193	0x3c893742	0.016749982
194	0xbe333c37	-0.17503439
195	0xbdf2bcf3	-0.118524455
196	0xbc993997	-0.018704219
197	0xbeecac36	-0.46225137
198	0xbe46184e	-0.19345209
199	0xbf09b8dd	-0.53797704
200	0xbd64f8a9	-0.055901203
201	0xbe2391a5	-0.15973528
202	0xbd3a3987	-0.04546502
203	0x3b701e75	0.0036639248
204	0x3d039da9	0.03213278
205	0xbe46ae50	-0.19402432
206	0xbd83f24c	-0.06442699
207	0x3df37648	0.11887795
208	0x3ebcfa1d	0.3690957
209	0xbe563e9d	-0.20922323
210	0xbe233f41	-0.15942098
211	0xbda83e58	-0.08215016
212	0xbf9f84d7	-1.2462415
213	0x3e662df5	0.22478469
214	0x3d66235c	0.056186065
215	0xbe15ddc6	-0.14635381
216	0xbeef8d4a	-0.46787483
217	0x3e0c0d5a	0.13676968
218	0xbdc369c3	-0.09541657
219	0x3ed3db55	0.41378275
220	0x3e5dd752	0.2166417
221	0xbe333988	-0.17502415
222	0x3e4e745c	0.20161575
223	0xbdbe23c1	-0.09284163
224	0xbe825a34	-0.25459445
225	0x3eafb23b	0.34315667
226	0x3ebf02db	0.37306866
227	0xbea4153a	-0.32047445
228	0xbe4219aa	-0.18955103
229	0x3e915cf1	0.2839122
230	0x3e8c12dc	0.2735814
231	0xbcb53032	-0.022117708
232	0xbd8726dc	-0.06599209
233	0x3e8b7479	0.272373
234	0xba487e75	-0.0007648238
235	0x3e082f47	0.13299285
236	0xbed0b523	-0.40763196
237	0xbe3f5b88	-0.1868726
238	0x3e5ab6db	0.21358816
239	0xbe214763	-0.15749888
240	0x3e15da1b	0.14633982
241	0x3e1e4f8a	0.15460029
242	0xbe35d321	-0.1775632
243	0xbcd12c7b	-0.025533905
244	0x3e071b7b	0.13194077
245	0x3de6122b	0.11233934
246	0xbd030854	-0.031990364
247	0xbf3f06d5	-0.746198
248	0xbe802b9c	-0.2503327
249	0xbee05cb2	-0.4382072
250	0xbdfa1072	-0.12210168
251	0x3e8f0958	0.27936816
252	0x3da79bf8	0.081840456
253	0x3db55f66	0.088560864
254	0xbe072538	-0.13197792
255	0xbe17d4da	-0.1482729

adv.bias f4 [10]
0	0x3e0424e2	0.12904695
1	0xbdaac7f6	-0.08338921
2	0xbe1fa18c	-0.15588969
3	0x3d063cc1	0.032772783
4	0xbdf1183e	-0.11772202
5	0x3d5a67f5	0.053321797
6	0x3e19ab7e	0.15006825
7	0x3bcc2093	0.006229469
8	0x3d16857d	0.036748398
9	0xbceb40f2	-0.028717492

val.weight f4 [1, 50]
0	0x3e995070	0.2994418
1	0x3e5d8807	0.21633922
2	0x3ea3586f	0.31903407
3	0xbed171b8	-0.40907073
4	0x3ef5c709	0.48003414
5	0xbf67b5de	-0.9051188
6	0xbea96e7e	-0.3309211
7	0x3f14d2a6	0.58133924
8	0x3f2e7f0a	0.68162596
9	0xbed95495	-0.42447343
10	0xbebe7ac7	-0.37203047
11	0xbf781435	-0.96905833
12	0xc01d1e9f	-2.454994
13	0xbfcfceda	-1.6235001
14	0x3e781290	0.24225831
15	0x3d645e2c	0.05575387
16	0xbfab7d7f	-1.3397673
17	0xbf5d1ba7	-0.8637032
18	0xbf40d46a	-0.7532412
19	0xbf99312c	-1.1968131
20	0x3d53dd8c	0.051724955
21	0x3ebc0cba	0.3672846
22	0x3f4f871f	0.81065553
23	0xbe543410	-0.20722985
24	0x3e6267a7	0.22109853
25	0xbe9c962e	-0.30583328
26	0x3ebd7995	0.37006822
27	0xbfe4d96a	-1.787885
28	0x3ea4f16b	0.32215437
29	0xbf0120c6	-0.50440633
30	0x3e801487	0.2501566
31	0xbe81be7f	-0.2534065
32	0x3f27be3d	0.65524656
33	0x3f3eb873	0.745002
34	0xbf349647	-0.70541805
35	0x3f0ee39b	0.5581605
36	0xbff710d1	-1.9302007
37	0x3f237a4c	0.63858485
38	0x3f349de1	0.70553404
39	0xc00a5fb6	-2.1620917
40	0xbf262978	-0.64907026
41	0xbea2aefc	-0.31774127
42	0xbebd1a57	-0.36934158
43	0xbf2c1da4	-0.6723273
44	0xbec019d1	-0.37519696
45	0x3ead1eb3	0.33812484
46	0x3ed4c3f1	0.4155574
47	0xc0052a40	-2.0807037
48	0xbf66ff6d	-0.902335
49	0xc007dc9f	-2.1228406
